models/model_shallow_network.pth (torch, 319819 bytes, 4 tensors)

hidden_layer.weight f4 [100, 784]
00000000: 331d 003d 7700 123d 92dd 08bd 103e a93c
00000010: 76f2 f93c b228 f83c 1c2a 3bbc 08bf b1bb
00000020: 9c33 d33c e333 bdbc e6c8 a53c 8864 953c
00000030: 545e dcbb c87d a13b 98ac d8bc 9875 c9bc
00000040: e835 cabc fc27 6d3c 1a91 8e3c 8abc 14bc
00000050: 3e04 8fbc 5ed7 d1bc 4aa9 6dbc 8004 383a
00000060: 309b b6bc 84cc 7f3c a890 dfbc 8a26 c0bc
00000070: 66fd a33c 0087 d33a aafd 1dbc 1c2b 34bc
00000080: 31b0 0e3d 8290 debc 90af 9cbc 1e9c b43c
00000090: 198f 1b3d 047b e6ba eb75 e3bc 0433 a9bc
000000a0: 2569 5b3c 5f01 053d 7806 8f3c a0a1 03bc
000000b0: e6fd e73b bc01 c43c 392f 913c bd38 86bc
000000c0: 3467 073b 89ac d63b f6a9 63bc b90d fbbc
000000d0: 48a3 cb3b 1e60 debc e01a e4bc 033e cdbc
000000e0: 3775 0e3d 937b 93bc 6ec3 6bbc 90be ec3c
000000f0: af0e 303c 0e3a 963c 52a4 76bc d30f a7bc
00000100: 7cc1 003d 1eb4 fc3c cffb 0a3d a311 073d
00000110: c531 74bd cf8f 39bd 4f3a 28ba 0406 ea3a
00000120: 5acd bebc f74a 29bc 6db2 cb3b ee3f 5fbc
00000130: bfd0 25bc 9889 f9bb 19a0 e13b 592d c23c
00000140: 0bbe aabc 5749 093b 3537 f7bc c8c6 8e3b
00000150: f87b 82bb c09a b33a 1800 af3c 8b1d f23a
00000160: 9d39 213c 6c14 423c 3221 2b3b f833 343c
00000170: 673b 0d3b 159b 833c c3d1 1b3d 5bf8 6e3c
00000180: 313d 2ebd e7aa 17bd 379e 6fbd 36b3 e3bd
00000190: c9f7 9fbd 353f 9fbd 1ae1 09be 661b eebd
000001a0: 5eee b3bc 24fb 433d 5b5c 5cbc 57d5 1b3d
000001b0: c969 23bb 58ae 543b e784 74bc a0f3 7c3b
000001c0: 7359 a7bc 291f 113d 6a74 703b 9b9e e5bc
000001d0: c9d3 f53c a73d 0bbd 4acd 1ebd cc87 7fbc
000001e0: 3401 bdbd 78b4 3cbd 73c8 82bc ab56 febc
000001f0: c249 9cbd c7d0 c6bd 79c1 7bbd b1f5 40be
00000200: d39d ccbc 5dd7 8d3d c887 92bd bfda 08bd
00000210: d04b b13d 94f2 793d e318 83bd 3090 9c3b
00000220: c666 5e3c 62a9 dfbb e88e 023d 66bd 04bb
00000230: 45ca d2bc b896 03bc acd1 debb 95f2 c7bc
00000240: f173 353c 9658 14bd 45dd f5bd 3f55 98bd
00000250: 687c cfbd d2d6 45be 096c 30be 85b9 80bd
00000260: e968 233e a483 523e 7eaf 353d 0fcb e8bd
00000270: 28bc 47bd a33b 543d 8b5c 293d 0696 b93d
00000280: 1f1b f03d d291 b03d 1f9b 5bbd 4327 76bd
00000290: 50e4 723d dcdf 583c 4964 f93c a725 28bc
000002a0: baac 08bd 5b7a 77bc 7bf0 a6bc e1b7 12bd
000002b0: f4f6 82bd 3c6b 00be 6a1e 27be 2dcf cabd
000002c0: 92b4 7ebe e04b 5cbe 8fbb f83c c84a 973d
000002d0: 3ee0 9d3e acb6 a43e 5d26 873e 4c1e 1a3f
000002e0: 5a03 c63e 039e f53e 4478 d53e bbc4 7c3d
000002f0: 41d7 5bbd f7e7 d43d 8e53 de3c 162c cebc
00000300: 9c34 37bd 388a 76ba 2638 a0bc 288c d9bc
00000310: 3d10 0cbd 2ded d8bc 815c ef3c 71ca 74bd
00000320: f7c8 80bd a750 06be 4ac0 17be 48a3 d2bd
00000330: ade4 60be 173b 0fbd 67fd 0e3d 6cdf 253e
00000340: 6ff1 f03d 0f46 973e a004 363d 088d 283f
00000350: b6f2 173f 8538 413e 2f3e e63e 0d70 01bd
00000360: 7021 21be 2350 a5bd e841 50bd dc98 56be
00000370: 5c43 f8bd b039 60bc 0c56 a8bc a13f a6bc
00000380: 70d9 863c c550 ccbb a776 563c b6e9 2cbd
00000390: 3a06 e43b 7831 1ebe 2997 20be d75d 32be
000003a0: 8b95 ba3a 6dda 6c3c fa33 a43d 6918 ac3d
000003b0: 939d 1dbd d845 96bd 99a8 75be ffa8 f2bd
000003c0: 4fd4 1d3c 148b 523d 233b 4d3e 9a9b 383e
000003d0: 35cc 12bd e3eb f5bd 75c6 8abd 2d13 d4bd
000003e0: b018 f1bd 0749 3dbd cd93 bf3b 3a12 063d
000003f0: 3304 f13c 101b 343b ce72 42bc 7d25 953a
0.031277847 0.035644975 -0.03341443 0.020659477 0.030511122 0.030292843 -0.011423614 -0.005424384
0.025781445 -0.02309603 0.020237397 0.018236414 -0.006725112 0.0049283244 -0.026449487 -0.024592206
-0.024683908 0.014474865 0.017403174 -0.009078154 -0.017458078 -0.02561539 -0.014505694 0.00070197135
-0.022290796 0.015612725 -0.027290657 -0.023455877 0.02001829 0.0016138256 -0.009642998 -0.010996606
0.034835998 -0.027168516 -0.019126683 0.022047099 0.037978265 -0.0017584269 -0.027766189 -0.020654209
0.013391768 0.03247201 0.01745914 -0.00803414 0.0070798276 0.023926608 0.017722713 -0.016384477
0.002066088 0.0065513295 -0.013895502 -0.030646192 0.006214533 -0.027145442 -0.027844846 -0.025053984
0.034779754 -0.01800326 -0.014389856 0.028899461 0.010745688 0.01833823 -0.015053825 -0.020393288
0.03143452 0.030847605 0.03393155 0.032975804 -0.059617776 -0.045303162 -0.000641738 0.0017854576
-0.023291279 -0.010332814 0.0062163384 -0.013626082 -0.01012057 -0.0076152794 0.00688554 0.023703264
-0.020842573 0.0020948255 -0.030177692 0.0043571927 -0.0039820634 0.0013702735 0.02136235 0.0018471939
0.009840396 0.011845689 0.0026112315 0.010998718 0.00215503 0.01606516 0.03804184 0.01458558
-0.042538825 -0.03702822 -0.058500495 -0.11118166 -0.07810933 -0.07775728 -0.13464776 -0.116263196
-0.021964248 0.04784693 -0.013449754 0.038045254 -0.002493488 0.003245255 -0.0149242645 0.003859736
-0.020428395 0.035430107 0.0036690482 -0.02802973 0.030008214 -0.033994343 -0.038769998 -0.015596341
-0.09228745 -0.046070546 -0.015964722 -0.031047186 -0.07631256 -0.0970779 -0.061463807 -0.18843724
-0.0249776 0.06925843 -0.071548045 -0.033411738 0.08657038 0.061022356 -0.06401231 0.0047779307
0.013574308 -0.006825612 0.031874567 -0.0020254492 -0.025731215 -0.00803154 -0.006799897 -0.024407664
0.011075006 -0.036217295 -0.120050944 -0.074381344 -0.101311505 -0.19320229 -0.17228712 -0.06285385
0.15957989 0.2055803 0.044356816 -0.11366855 -0.048763424 0.051814687 0.04134802 0.09061818
0.11723923 0.08621563 -0.053614732 -0.060096037 0.059299767 0.013236966 0.030443328 -0.010262883
-0.03336785 -0.015104855 -0.020378342 -0.03581989 -0.06394759 -0.12540907 -0.16320196 -0.09902797
-0.2487357 -0.21513319 0.030362872 0.0738731 0.30835146 0.32170618 0.26396456 0.6020248
0.38674432 0.47972116 0.41693318 0.061711054 -0.05367208 0.10395806 0.027139451 -0.025167506
-0.044727907 -0.00094047515 -0.019558024 -0.02655609 -0.034195174 -0.026480282 0.029218914 -0.059763376
-0.06288331 -0.13116704 -0.14819446 -0.1028505 -0.21962233 -0.03496846 0.034909632 0.1619851
0.117648 0.29545638 0.044438004 0.65840197 0.5935472 0.18869217 0.44969317 -0.031601
-0.15735412 -0.080719255 -0.050844103 -0.20956749 -0.12122223 -0.013685629 -0.020548843 -0.020294013
0.016461104 -0.0062352144 0.013089812 -0.04221507 0.00695875 -0.15448558 -0.15682663 -0.1741861
0.0014235241 0.014456374 0.08017726 0.08403093 -0.038480353 -0.073375404 -0.23990096 -0.1184864
0.009633138 0.051402166 0.2004209 0.18028107 -0.03583928 -0.120078824 -0.06776134 -0.1035522
-0.11772287 -0.046212222 0.0058464766 0.032732226 0.029420948 0.002748195 -0.011868192 0.001137897

hidden_layer.bias f4 [100]
00000000: 13be 8fbe c140 b7be f0f9 ddbe 24e7 c43e
00000010: ce64 e4bd 728d 463d 93f1 413e 6fde 323e
00000020: ab91 743c 37e8 453c 5c67 d9be e557 1f3e
00000030: ea95 383e 6fa7 2fbe cfe2 183e edfe 4f3c
00000040: 9cec 15bf d7d9 dabc 22e9 debd 778b f2be
00000050: d1a9 c83e 51a2 30be 6653 b9bd c10c 9c3e
00000060: 1581 d0bb 899f 51bd b1e7 93be 1df4 1d3f
00000070: 8b84 a63e 1486 84be 69ba da3b c18d 493e
00000080: 509d 96be 170b 3dbc 396f bf3c b855 633d
00000090: b71c 583e 07fd 363e 15e7 04bd 6ef8 18be
000000a0: 3fa1 233e edb7 7fbe b8e6 d13d 6cdd 31be
000000b0: 0765 babe 9ef4 09be 2857 dbbd 95a7 b53c
000000c0: 1498 5a3d 3d49 2dbe 4600 3d3e 7106 9fbe
000000d0: 2457 18bf 3bcb 853e dcc4 dabe 88d1 a23e
000000e0: 57e3 193e eee4 a7bd 5a65 5bbe 7bee 8cbe
000000f0: 4cc2 14bf 8357 08bd 54d9 adbd 1177 d4bd
00000100: 3dee 3a3e 8c9f 773e 0095 89be 99ed 44be
00000110: 2989 053f 33fb a2be 562e 2c3c e016 9a3e
00000120: ac78 20bc d1a7 2dbe 980f ac3d 5cfc 663d
00000130: c9b0 443c 119d 0bbe e6b7 9c3e 7d49 223e
00000140: a79f cd3d a4bd c5bd 0a8f 1dbf 4015 c73e
00000150: 1ca1 b3bc 56f8 9dbd 4858 17bd 1477 89bc
00000160: e82d 4b3d a3fa a43e 4d57 883d 6e5d acbd
00000170: ed09 9fbe ed3f 043e 6a60 1dbb 1bdc cf3d
00000180: 7752 eb3d 3f63 85bd c84b dabd 1433 a1bc
-0.28074703 -0.3579159 -0.4335475 0.38457596 -0.111520395 0.048474737 0.1893981 0.17467664
0.014927308 0.01207929 -0.4246167 0.15560873 0.18025938 -0.17153715 0.1493027 0.012695056
-0.5856416 -0.026715202 -0.1088431 -0.47372028 0.3919206 -0.17249419 -0.0904911 0.3047848
-0.006363044 -0.051177535 -0.28887704 0.6170061 0.32522997 -0.25883543 0.006675054 0.19682981
-0.29416895 -0.011538289 0.023368465 0.05550167 0.21104704 0.1786996 -0.03244694 -0.14938518
0.15979479 -0.24972506 0.10249084 -0.17369622 -0.36405203 -0.1347222 -0.10709983 0.022174636
0.05336769 -0.1692247 0.18457136 -0.31059602 -0.59507966 0.26131615 -0.42728317 0.31800485
0.1502813 -0.08197962 -0.21425381 -0.27525696 -0.58108974 -0.033286583 -0.08488718 -0.103742726
0.18254943 0.24181956 -0.2687149 -0.19231261 0.52162415 -0.31832275 0.010509094 0.30095577
-0.009794395 -0.16958548 0.08401412 0.056393012 0.0120050395 -0.13634135 0.30609053 0.15848346
0.10040217 -0.09655312 -0.61546385 0.388834 -0.021927409 -0.07713382 -0.036949426 -0.016780414
0.049604326 0.3222247 0.06657276 -0.08416258 -0.3106226 0.12915011 -0.0024013766 0.10149404
0.11490338 -0.0651307 -0.106589854 -0.019677676

output_layer.weight f4 [10, 100]
00000000: 4a0a b03c a5f3 853f fca4 36bf 3dd4 103e
00000010: 2cb6 c8be 3e8f cfbd 9720 e43e 144b a7be
00000020: 3b6a 59bd 1b52 a93e 7f70 b4be 5ba8 9b3e
00000030: 2903 213f 2e0e cdbe b06a 4a3f 12c8 a13c
00000040: 0bf4 193f de60 08be 1832 873e 9e23 8c3e
00000050: 14a9 003f d2f7 3b3e a25f 133f 22b3 bcbe
00000060: ef00 4fbe 4060 f8be e7e9 883e aba5 103d
00000070: 4c5b a4be 4b71 dd3e 7a15 b9be 7ae5 543e
00000080: f590 7c3a c589 d53d 7aee 933f 9d91 16be
00000090: 4553 6dbf be02 683e c4de 8b3a 409c 05bf
000000a0: abe6 75bd 0dc0 80be 8fb0 85bf 3576 843f
000000b0: d3d4 223f 5ace 84bf 4b98 ba3e 736e 95be
000000c0: b104 823e 1eea b53e 5fa0 b5be cb1d 213f
000000d0: 741d 5d3e a24f bbbe 62fa 2bbf dc7b 54be
000000e0: 4900 acbe 820d 9abe faa6 18bf 11c9 c73e
000000f0: f75a 21bf 3855 463e c8ac 76bf d914 ce3e
00000100: 2ead 13bf 8a21 2abf cfde 403f bc64 7bbe
00000110: c83d 0b3f 6b15 adbf 4a45 b33d 7336 b63e
00000120: 5383 1abd a873 2bbf 9ccd 0bbf ff1e 1d3f
00000130: b5bc 56be ce86 223e f768 20be 3282 a2bf
00000140: a17d 57bd f94c 223e 017f 203e 3975 82bf
00000150: 57db 74bf 879e 7fbf f628 9fbe 76ff 813d
00000160: ee27 08be 8bc4 c63e ea18 6a3f c9e4 e13e
00000170: e9b1 253f 9bb1 cb3d 17d0 9cbe 9b8c 4abd
00000180: 1cca 443f a560 753f 14db 14bf b05d 863e
00000190: 9442 4dbf 5e20 46bf 21dc 2f3f 0a60 46bf
000001a0: 11ff 283f 3afc 6c3f c49d 8dbe 8b1b 2d3e
000001b0: eafd bebd 6333 a5be 37b1 333e 3c8b e0be
000001c0: c0e1 d13e 23b8 c03c 747f 363f 02d3 723c
000001d0: 2c0a 2ebf 69c1 003f 1e64 90be 8c6a c9be
000001e0: e552 89be f8f4 c7bb b3be 003f 5d8a 703f
000001f0: 275d d3be add5 c0be 030e 5abf b91e 02bf
00000200: a241 033e 15b7 0bbf 4b17 4e3f 1db7 63bf
00000210: a6d2 75bf ba01 fc3e b31d 083e 1156 fa3e
00000220: e8ae c33e 9f8e 913f c093 273d b14a 68be
00000230: cd02 693d 9562 a73e 9136 c0bd 8b89 abbf
00000240: a530 4dbe 81d4 8abd 9d02 7e3e 9ebf 80bf
00000250: 7bd9 833f 2a84 8bbf a09e b03e 92f1 203f
00000260: 2c87 0c3f 589b c73d 5f2c ea3e f20b 95be
00000270: 6564 08bf a40e a9be c7a2 503f 2dae d23e
00000280: c4a0 033f 245b 9e3e cf62 543f b9ba b1be
00000290: 2ef0 85bf 1ad4 343f 2319 34be 8225 a63e
000002a0: fb67 963f 5aef 913e bee5 cd3d df91 53bf
000002b0: 8088 4b3e d43b cfbd 304b 213f cf54 e9be
000002c0: be36 1d3f ba07 c63d 55a8 153f ec46 813c
000002d0: 4d5a be3e c4b3 08be 1192 e73e b927 b6be
000002e0: a5b2 203e bda8 0c3f 4f93 dd3e 5b6d dabb
000002f0: 3818 d33e 028b 30be 1016 3ebf 9ec5 b7be
00000300: d109 2e3d adaf 2e3f 5915 a6be 2c00 97be
00000310: be86 c0bd 88ac b5bd dea3 f6be fd1a 38be
00000320: c8ca e03e b87e 063e 7560 fbbe 5fbe 8c3f
00000330: 4b13 d73e 4d49 f2be e03f 3b3f a733 fbbe
00000340: 6f71 f2bd d00c 4fbf 8b4a 7b3e ee71 43bf
00000350: 2749 d13e 4703 6abe 359e 0f3f 96b7 b2bd
00000360: 4d35 39bd bc78 053f 8fb3 86be 11d2 aa3e
00000370: 4e3a bd3f 9708 c1bf 41b1 203e 5d3b 8cbf
00000380: 5c2a 36be b6f8 293f 66e8 be3d 2676 39bf
00000390: 81d7 a73c af1b c93e e6a9 953f b333 083f
000003a0: a92d 94bd 8e03 123f 7368 4d3f 3b98 8cbf
000003b0: 93b5 8bbf 2d24 1c3f 8516 bebb 2dc3 00bf
000003c0: 323a 8c3f a631 d2be 4063 9ebf 4bf8 fa3e
000003d0: 0760 20be 755f 2e3e 273c 37bd 1d70 42bf
000003e0: c6ca 893e 54f7 85bd 035a 133f 0ea0 3e3f
000003f0: c6ed b63e bb3d 31bf 7d56 853e a17e ecbe
0.021489281 1.046498 -0.71345496 0.14143462 -0.39201486 -0.10134743 0.44556114 -0.32674468
-0.053079825 0.33070454 -0.35242078 0.30401883 0.62895447 -0.4004988 0.7906904 0.019748721
0.60138005 -0.13318202 0.26405406 0.27370924 0.5025799 0.18356255 0.575678 -0.36855417
-0.202152 -0.48510933 0.26740953 0.035314243 -0.32100904 0.43250498 -0.36149198 0.20790663
0.00096346374 0.10426668 1.1557152 -0.14703985 -0.92705184 0.22657296 0.0010671248 -0.52191544
-0.060034435 -0.25146523 -1.0444506 1.0348574 0.63605994 -1.0375473 0.36444315 -0.2918583
0.25394204 0.3553018 -0.35473916 0.62936085 0.21593267 -0.36584193 -0.6717893 -0.20750374
-0.33593968 -0.3008843 -0.59629786 0.3902059 -0.63029426 0.19368446 -0.96357393 0.4025028
-0.57686126 -0.66457427 0.7533998 -0.24550146 0.54391146 -1.3522161 0.0875345 0.35588416
-0.037722897 -0.6697335 -0.5461061 0.6137542 -0.20970424 0.15871736 -0.15665041 -1.2695982
-0.052610043 0.15849675 0.15673448 -1.0192024 -0.95647186 -0.9985127 -0.31085938 0.063475534
-0.13296482 0.38821825 0.91444266 0.44119862 0.64724594 0.09945985 -0.3062751 -0.049450498
0.76870894 0.9585059 -0.58146787 0.26243353 -0.80179715 -0.7739314 0.68695265 -0.77490294
0.660142 0.9257237 -0.27659428 0.16905038 -0.09325774 -0.32265767 0.17548071 -0.43856227
0.40992546 0.023525303 0.7128823 0.014820816 -0.6798427 0.5029512 -0.28201383 -0.393391
-0.26821056 -0.0061022006 0.50290984 0.93961126 -0.41282007 -0.37663022 -0.8517763 -0.5082813
0.12818006 -0.54576236 0.8050429 -0.88951284 -0.9602455 0.49220067 0.1329258 0.48893788
0.3821938 1.137165 0.04091239 -0.22684743 0.056887437 0.326924 -0.09385408 -1.340135
-0.20038088 -0.06778813 0.24805684 -1.0058477 1.0300745 -1.0899708 0.3449602 0.6286861
0.54893756 0.09746426 0.45736977 -0.29110676 -0.5327819 -0.33018982 0.8149838 0.4114851
0.51417184 0.3092891 0.8296327 -0.3471277 -1.0463922 0.7063614 -0.17587714 0.3245049
1.1750482 0.28502923 0.100535855 -0.82644457 0.1987629 -0.10118833 0.6300535 -0.45572516
0.61411655 0.096694425 0.5845998 0.015780888 0.3717827 -0.13349825 0.45228627 -0.3557718
0.15693147 0.54944974 0.4327645 -0.006665868 0.41229415 -0.17240527 -0.74252415 -0.35892957
0.04248983 0.6823681 -0.32438162 -0.2949232 -0.094007 -0.08870798 -0.48171896 -0.17979045
0.4390471 0.13134277 -0.49097028 1.0995597 0.42006907 -0.4732155 0.7314434 -0.49062845
-0.11838042 -0.80878925 0.24540155 -0.7634572 0.40876123 -0.22852813 0.5610078 -0.087264225
-0.045216847 0.5213735 -0.26308867 0.33363393 1.4783418 -1.5080746 0.15692617 -1.0955616
-0.17789596 0.6639513 0.0932167 -0.72445905 0.020488502 0.39278933 1.1692474 0.53203887
-0.072352715 0.57036674 0.802375 -1.0983957 -1.0914787 0.609927 -0.0058010244 -0.50297815
1.095526 -0.41053504 -1.2374039 0.49017558 -0.15661632 0.17028601 -0.0447351 -0.7595232
0.26912516 -0.06541315 0.5755922 0.74462974 0.35728282 -0.6923482 0.26042548 -0.4619036

output_layer.bias f4 [10]
00000000: 8476 99be 889c cfbe f2ee 21bf a8f1 9abe
00000010: fb78 003f 9e50 b6bd 286f c9bd 5354 f0be
00000020: 0158 9d3f 9f76 0e3f
-0.29973233 -0.4054911 -0.63255227 -0.30262494 0.501846 -0.08902095 -0.098356545 -0.46939334
1.2292482 0.5564975
